breast_cancer_prediction/run/models/best_model_torch.pth (torch, 21228 bytes, 7 tensors)

hidden1.weight f4 [64, 28]
00000000: 761d d53c fe76 b5bd 3dd8 fa3d 337f 1dbe
00000010: 11c4 bdbd 5650 77bd e364 c8bb 8fae 243d
00000020: 194a b93d e564 88bd 122e 93bc 4151 c9bd
00000030: 306e ffbd 84ba 273d fa65 0e3e b6ad 263e
00000040: f7a8 17be 7d4b b63d 04f3 6cbd 03e8 1fbc
00000050: dde1 eebb c179 273e 525c 223e a087 1cbe
00000060: d308 293d 57bb e23d 57f9 4d3d ed61 98bb
00000070: e97e b8bd 1267 09be e370 3ebe b369 9abb
00000080: c997 97bd a181 323d 9469 a5bd ddbc 203e
00000090: e320 09be 1eb2 2b3e c4cc 9abd 7e78 e93c
000000a0: 8ca7 8dbd 9746 a13d 27c9 173e 7512 343e
000000b0: cd7e 06be 4d2d 043e 9036 fe3d a572 1fbe
000000c0: 0592 9a3d b815 123d b759 d43d e55b 283e
000000d0: 1e2b 4f3b 4791 91bd 3879 afbd 3a93 c33c
000000e0: aada e6bc 8df9 0abe 4c6c 9a3b d2f6 db3d
000000f0: 3715 b63b dbb3 f13d 6ef9 93bd 1c73 173e
00000100: 6afc 373d 9e72 81bd 5c51 ba3d 5f15 be3d
00000110: da49 a5bd 053b 0cbd d021 c83d 677a 2abe
00000120: 0b5d 943d 6fd3 2b3d 4384 04be 9192 c3bc
00000130: 403d 5f3d e613 063e 7fd0 0c3e 08e0 fbbd
00000140: 808e fdbd 3fc0 b43d f7cd 3d3e a149 243e
00000150: 93f4 9a3d a8c5 383e 642c afbd 537a 88bb
00000160: df94 1cbe 7ae6 eabd 87ac 01be e698 2ebe
00000170: cdac 5f3d 082f 473d 4274 9e3d c093 013e
00000180: 09da 18be b7ba 5bbd 8f49 193e 4d14 2abe
00000190: c56c 083e 0729 703d 60cf 1bbe db96 2b3d
000001a0: d188 f03b 47b8 1a3d 6ec8 58bd 6d98 b13d
000001b0: aebe 173e 9226 083e ee9f 8abc fce7 30be
000001c0: c529 3c3e a646 523d 6004 2b3e bd16 893d
000001d0: 6ccc f93a 4ab7 cd3d 88d1 d63d 3db9 39bc
000001e0: 8fe9 e23c 3727 fbbb 6d65 033e 94b1 ad3d
000001f0: 5e5a febc f316 343e 8b48 393e 0d1d 1c3e
00000200: 92ba 0b3d 9dbf 483c 0aad ccbd c3fc 0b3e
00000210: 9552 0cbe 0d11 28be 026d 653d a047 36be
00000220: 55c8 713d dcf6 bcbd 4610 61bb d1da 96bd
00000230: 51cd 1c3e cc85 0fbe 5a80 0b3d 2651 e43a
00000240: 8a9c 38be 9071 153e e908 173d 7c2c 1cbe
00000250: 0c3a 40be 929a ab3d 3cb1 1e3e b02d 30bd
00000260: 0f7d 67bd 8922 26be 2896 013e 18ed 93bd
00000270: dcb5 b3bd a237 913d 5a7c 293e f453 b33d
00000280: 1f3c 603d c67f 2b3e c6b6 fb3b b6b6 e83c
00000290: 93f5 69bc 610d f3bd a636 0a3d 86e9 cabd
000002a0: 1030 e03d 3d68 05be fc06 1ebe 4d1d 15bd
000002b0: e0e5 0f3e 42fb 12be 2d06 75bd 783f 6ebc
000002c0: 189d a9bd f4c4 b63d 95d4 283e 9e70 d13d
000002d0: 03bb 25bd a61d 18be 7fd5 1fbe 812a 3abd
000002e0: 8625 76bd a0e5 12be 7720 403d 2a8c 91bd
000002f0: f836 613d a439 cdbd f7cb 89bc 51d7 67bd
00000300: 635a ee3d 6268 30be cf38 97bd 2a14 263d
00000310: 8d86 5bbd b1d1 70bb 1e58 033e ca96 e03c
00000320: c6a0 c03c e5ef 613d b7a8 cebd 7bb2 98bd
00000330: b032 b93d d52d e43c 5874 fc3d f33e c6bc
00000340: be1b 363e 9153 e83d 1dc1 56bd fbc8 c5bd
00000350: 8708 1e3d 8edc 20be f551 b2bd e95a 6a3d
00000360: 3543 833c ee0e ae3d 03cd a1bd bdbf 223e
00000370: 8e7c d4bd 91ae c6bd 48c3 013e 011e 13bd
00000380: 8161 603d e3dc 06bd 1dda 07be 08cb e7bb
00000390: c883 b13d 5231 033e 7f20 143e 640d d3bb
000003a0: dac5 0c3e 6338 5b3d 6df7 ee3b 385a 8a3b
000003b0: 999d 8fbc 70ac 603d 7d9e 12bc ea78 fa3d
000003c0: 425a e8bc 6111 d5bd a983 633d 87fd d9bd
000003d0: e072 f13d 3ead 1e3e df1d fd3c a287 1abd
000003e0: 4322 08bc fb55 b63d 8935 14be e942 4fbd
000003f0: b027 ebbd 31e6 2ebe 7354 0abe 0442 f7bd
0.026015025 -0.088605866 0.122482754 -0.15380554 -0.09265912 -0.06037935 -0.0061155423 0.040205535
0.09047336 -0.06659869 -0.017966304 -0.09829951 -0.124721885 0.04094936 0.13906088 0.16277203
-0.14810549 0.08901117 -0.057848945 -0.009759906 -0.0072901086 0.16355039 0.1585553 -0.15286112
0.04126818 0.110708885 0.050286617 -0.0046503455 -0.09008581 -0.13418224 -0.1859775 -0.0047123074
-0.074019976 0.043580655 -0.08076778 0.15697046 -0.13391452 0.16767165 -0.07558587 0.028499838
-0.06916723 0.07874792 0.14822827 0.17585166 -0.13134308 0.12907906 0.12412751 -0.15571077
0.07547382 0.035665244 0.10368674 0.16441305 0.0031611393 -0.071077876 -0.085680425 0.023873914
-0.028180439 -0.13571759 0.004712617 0.107404366 0.005556728 0.11801883 -0.07225309 0.14790004
0.044918455 -0.063206896 0.09097549 0.0928142 -0.08070727 -0.034235973 0.09772074 -0.16648255
0.07244309 0.041949686 -0.12941079 -0.0238736 0.054501772 0.13093528 0.1375141 -0.1229859
-0.12380695 0.088257305 0.185356 0.16043712 0.0756618 0.1804415 -0.08553389 -0.004164973
-0.15291165 -0.11469741 -0.1266347 -0.17050514 0.054608155 0.048628837 0.07737018 0.12654018
-0.14926924 -0.053644862 0.14969467 -0.16609307 0.13322742 0.058632877 -0.15215826 0.041891914
0.0073405285 0.037773397 -0.05292552 0.08671651 0.14818832 0.13295963 -0.016921964 -0.17275995
0.18375309 0.051336907 0.16700888 0.0669379 0.0019058115 0.10044725 0.10489184 -0.011335668
0.02769926 -0.007664587 0.1283166 0.08481136 -0.03104895 0.1758688 0.18094079 0.15245457
0.034113474 0.012252715 -0.09993942 0.1367064 -0.13703378 -0.16412754 0.05601216 -0.1780076
0.059028942 -0.09226772 -0.0034341975 -0.07365955 0.15312697 -0.14015883 0.034057952 0.0017419204
-0.18028465 0.14594102 0.03687373 -0.15251344 -0.18772143 0.08379091 0.15497297 -0.04301232
-0.05651575 -0.16224112 0.12654936 -0.072229564 -0.08774921 0.07090689 0.16551343 0.08756247
0.054744836 0.1674796 0.0076817004 0.028407436 -0.014279741 -0.11867786 0.033743523 -0.09907822
0.10946667 -0.13028045 -0.15432352 -0.036404897 0.14052534 -0.1435366 -0.059820343 -0.014541499
-0.082819164 0.089242846 0.16487344 0.10226558 -0.04046155 -0.1485506 -0.15608786 -0.04545069
-0.06009438 -0.14345407 0.04690596 -0.07106812 0.054984063 -0.1002076 -0.01682089 -0.056601826
0.11638334 -0.17227319 -0.07383882 0.040546574 -0.053595114 -0.003674608 0.12826583 0.027415652
0.023514163 0.055160422 -0.100907736 -0.074559174 0.09042871 0.027853886 0.12326878 -0.024199938
0.1778402 0.11344064 -0.05243026 -0.096574746 0.03858235 -0.15709135 -0.08707038 0.057215605
0.016023258 0.08498941 -0.07900431 0.15893455 -0.103753194 -0.09701265 0.1267215 -0.035917286
0.054780487 -0.032925498 -0.13266797 -0.0070737638 0.086677134 0.12811783 0.14465521 -0.0064408053
0.1374735 0.05352057 0.007292679 0.0042221807 -0.017531203 0.05485195 -0.008948919 0.12230094
-0.02836335 -0.104037054 0.055545483 -0.1064406 0.11789489 0.15495774 0.030898033 -0.037727006
-0.00830895 0.08903118 -0.14473547 -0.05060092 -0.11482179 -0.17079999 -0.13508777 -0.12073138

hidden1.bias f4 [64]
00000000: e1f6 82bb 483a 863d 978c bf3d f384 943d
00000010: 6c08 bb3c b672 19be 8b43 debd f0d7 ddbd
00000020: f425 40be dfe1 383e 9f48 aebd 1202 01be
00000030: 2f5b b0bd 7a34 d43d 805d f4bd b9a3 21be
00000040: 24b3 10be 797c 2b3d ca3a debb 19cf 2dbe
00000050: 9eff 04be e3da 27be 3137 863d 1de1 ac3d
00000060: 7fc0 023d ee12 7cbd 5578 cdbd 2c46 9b3d
00000070: 829b 31bd 7928 01bd de87 7bbd 97a5 013d
00000080: d973 333d dfc7 1f3e b1d3 2a3e b17d 4bbd
00000090: 7798 e23c a109 00be 8804 10be baee 203e
000000a0: 8d5e b83c 122b bebd c4df c33d a4b6 993d
000000b0: b0f9 8c3d 0f38 a63d c687 103c 0120 0ebe
000000c0: 7002 2cbe 05a5 3b3e 6801 063e d43b 16be
000000d0: b748 183e 5fee 33be 01fa 003e 56ee 063e
000000e0: 9a91 f23d a5ff a13d b003 e9bd efe3 a7bd
000000f0: 7ac5 213d 30ab 9a3d de73 293e 217e 173c
-0.0039967154 0.06554085 0.09352987 0.072519206 0.022831164 -0.14985165 -0.108527265 -0.108322024
-0.18764478 0.18054913 -0.08509945 -0.12598446 -0.08611142 0.103615716 -0.11931896 -0.15785111
-0.14130837 0.041866753 -0.0067819105 -0.16973533 -0.12988135 -0.16392092 0.06553496 0.084413745
0.03192186 -0.06154149 -0.10032717 0.075817436 -0.043361194 -0.03153274 -0.06140887 0.03165206
0.043811653 0.15603589 0.16682316 -0.049680416 0.027660592 -0.12503673 -0.14064229 0.15716067
0.022506023 -0.09285559 0.09564164 0.07505539 0.068835616 0.08116161 0.008821433 -0.13879396
-0.16797805 0.18324669 0.13086474 -0.1467126 0.14871489 -0.175714 0.12595369 0.13176855
0.118441775 0.079100884 -0.113776565 -0.08197772 0.03949497 0.07552183 0.16548106 0.00924638

hidden2.weight f4 [32, 64]
00000000: 3112 4f3d 514e c2bd 7637 d2bc 1d02 973d
00000010: 214b 323c 85ee c93d 918e cebd a642 aabd
00000020: 009e 223d 562c b3bb 1093 dcbd 7444 5a3d
00000030: 1b68 983b 6a7e f03c 48ab e43c b154 b0bd
00000040: 5517 adbd 1c57 ccbd c78c ba3d 4f6f 8ebd
00000050: 6afc e43d b587 24bd 90cc e13c afe9 f33d
00000060: 5872 89bd 16a3 f3bd 2a2e 983c 6ee8 b7bd
00000070: 055c 8e3d b38d 493d b531 b93d 298d 62bc
00000080: 84e8 a5bd 756d ebbd 208b a6bd 6a25 e53d
00000090: 4ba4 dcbc 322a 57bb afa5 d7bc 9e4c 83bd
000000a0: d3cc cf3d d17e 08bd 97f4 78bd 8e2a ec3d
000000b0: 3dc3 9a3d cb72 893d 47c6 b53d 2ea5 a3bd
000000c0: 1ad0 253d 374b 12bd b6a2 763b fadd 6e3d
000000d0: 7841 2cbd b6c1 f83d 78eb 8837 edfb 943d
000000e0: 9b84 303c 0478 f5bd 7a68 99bd 6a80 d6bd
000000f0: 7535 5f3c 48d4 acbd 87bd cbbd b95e db3c
00000100: 7f24 e1bd 7f77 89bd e4b4 a6bd ff5d 793d
00000110: 6746 e93d af6e 2e3d cbf2 8cbd a4cd c03d
00000120: ce24 eb3d f9b5 05bd 509d be3d 93c0 ff3c
00000130: a617 b0bd bea9 01bd eaa7 ccbd fc4b 163d
00000140: 6f78 8f3d 9641 febd 0636 50bd d9a2 803b
00000150: b11f ce3d 02a0 8dbd 061d f9bb adc8 1cbb
00000160: 98d2 82bd 28b3 67bd 6f1d 0dbd cfd5 1dbd
00000170: c9bc 27bd e847 4b3c 7d12 3dbc aa9f 74bd
00000180: 42b7 983d 30b8 b43d 4724 a2bc 82b0 c6bc
00000190: 5a44 fbbd 05ea b8bd 7933 e2bb b035 bdbc
000001a0: 4217 1a3d 1f92 79bd 46e3 d8bc be60 9b3c
000001b0: bfc8 f83d 7dd5 c63d d727 a6bd 3a33 18bc
000001c0: d0a8 a4bc dcc1 7cbb 7fa6 5a3d 32c0 49bd
000001d0: caf5 dbbc 9761 fbbd 8090 32bd 3584 fdbd
000001e0: 9eb4 383d a276 c7bd 813b 7fbd ad53 b7bd
000001f0: 801a c53d 2128 1abd f226 dc3d 6d30 80bd
00000200: aed0 c13d 760e cfbc 37f3 c0bd 8804 d43d
00000210: a45c adbd b7d9 96bd 41d6 893d 75d6 41bc
00000220: 500a e9ba bc79 fb3d 6d63 ccbd 914f 3abd
00000230: 0561 4d3d 2afc cdbc b229 fc3a 1afd 2bbd
00000240: 23fb a3bc e924 cd3d 2bd0 c2bc a258 493d
00000250: d527 bf3d 9eda c53d 29a4 703d 6552 ae3d
00000260: 20d2 04bd 2bb5 103c cba0 5cbd a4f9 f6bd
00000270: c37c d63d 3e10 f6bd 0265 a0bd b981 3bbd
00000280: ef30 e9bd eef5 c5bd 9de3 87bd 5182 6e3c
00000290: dc3b dfbd 1200 babd 76ff 94bd c406 c3bd
000002a0: ac06 ea3c cd0e 433b e272 da3c 3162 e53d
000002b0: b91b 5fbd 39c7 3dbd 01ca 1e3d 9e86 de3d
000002c0: dae7 223d ecc2 38bc 1ebb 213d 3d79 fdbd
000002d0: 0928 b1bd 8381 5bbd 0e2e e9bd 26a0 c0bd
000002e0: ffbb c5bd c299 143d 157a 173d 6d68 83bb
000002f0: 7b50 f6bc 52d3 253b 263b 993d 4827 c3bd
00000300: 9409 b63d 7af1 5e3d 054c 34bd 11ab b23d
00000310: 5bd9 04ba a723 68bd dec1 e53d 1d1a 153d
00000320: 93a4 c23d a09f 0cbd 3281 d9bd ed1b cf3d
00000330: 8a2d f33b 7308 713d 443a 05bd f314 733d
00000340: 87f8 cabd 3fe1 933b 94c4 c23d f919 0cbd
00000350: c1d7 da3d cb22 403d b8db 7a3d 99af fc3d
00000360: 3c68 f8bc 9e8f f2bc 5e4b 9f3d b20e 82bd
00000370: 70cc bcbd ed5e a63d ec5e e0bd b013 72bd
00000380: edeb f53c 6a7a 933c d55c 9cbd 634c 01bd
00000390: 678b a53d b62b a7bd 5c20 943d f4a5 55bc
000003a0: d2ef 36bd 0830 f4bd 60bb 05bd 1fcf d13d
000003b0: 224d 8bbd bd3f cbbd 1cd6 28bc 5f52 b43d
000003c0: f25e 0dbd 8ea3 fa3d 6e70 f53d 8a73 ea3d
000003d0: cc0c 92bd f737 b6bd 8efe efbd d86f c5bc
000003e0: c2be a7bd 7ac4 6e3d a70b 463c 8ec8 ca3d
000003f0: e8d0 edbd cea4 d6bd a404 bfbc 8a4e 063d
0.050554458 -0.09487594 -0.025661211 0.0737345 0.01088217 0.09859947 -0.10085786 -0.083134934
0.03970146 -0.0054679317 -0.107702374 0.05328794 0.004651082 0.029357154 0.027913705 -0.086099036
-0.08451716 -0.09977552 0.091088824 -0.06954824 0.11180957 -0.040168483 0.027563363 0.11909806
-0.067112625 -0.118963405 0.0185767 -0.08979879 0.06951145 0.0492074 0.09042684 -0.0138276005
-0.081009895 -0.11495487 -0.08132005 0.11188777 -0.02693381 -0.0032831547 -0.026324121 -0.06411098
0.10146489 -0.033324067 -0.060780134 0.11531554 0.0755677 0.06711348 0.08875709 -0.0799049
0.040481664 -0.03571626 0.0037633604 0.058317162 -0.042054623 0.121463224 1.6322112e-05 0.072746135
0.010773803 -0.11985782 -0.074906304 -0.10473712 0.013623585 -0.08438927 -0.09948259 0.026778566
-0.10993289 -0.06712245 -0.08139971 0.060880657 0.11390381 0.042586025 -0.068822466 0.09414223
0.11481629 -0.032644246 0.09307349 0.031219756 -0.085982606 -0.03165602 -0.099929646 0.036693558
0.07005393 -0.12414853 -0.05083277 0.003925663 0.100646384 -0.06915285 -0.007602337 -0.0023923323
-0.06387824 -0.05656734 -0.0344519 -0.038533982 -0.040951524 0.0124072805 -0.0115400525 -0.05972258
0.07456829 0.088241935 -0.019792689 -0.024254087 -0.122688964 -0.09029011 -0.0069031087 -0.02309689
0.037619837 -0.060930368 -0.02647556 0.018967029 0.12147664 0.097086884 -0.081130676 -0.009289557
-0.020100027 -0.0038567698 0.05338144 -0.049255557 -0.0268506 -0.12274473 -0.043594837 -0.12378732
0.045094125 -0.09739424 -0.062312607 -0.08951507 0.09624195 -0.037635926 0.10749616 -0.062592365
0.094636306 -0.02527545 -0.094213895 0.10352427 -0.084649354 -0.073657446 0.06730319 -0.011830916
-0.0017779563 0.12279078 -0.099799015 -0.045486037 0.050141353 -0.025144655 0.00192385 -0.041989423
-0.020017212 0.10016806 -0.023780903 0.049156792 0.09333769 0.096608385 0.058750305 0.08511809
-0.032426953 0.008832256 -0.05386428 -0.12059334 0.10473015 -0.12014817 -0.07831766 -0.04577801
-0.113862865 -0.09666048 -0.06635211 0.014557437 -0.10900089 -0.09082045 -0.07275288 -0.09522775
0.028567635 0.002976346 0.026666109 0.11200369 -0.054469798 -0.04633257 0.038766865 0.1086552
0.039771892 -0.011276942 0.03948509 -0.1237664 -0.08650214 -0.05359031 -0.11385737 -0.09405546
-0.09654998 0.036279447 0.03698166 -0.0040102513 -0.030067673 0.0025302959 0.07481985 -0.09528977
0.08888546 0.05442951 -0.04401781 0.087240346 -0.0005067789 -0.056674626 0.11218618 0.036401857
0.09504046 -0.034331918 -0.10620345 0.10112748 0.0074212 0.05884595 -0.03252627 0.05934615
-0.09910684 0.0045129354 0.095101506 -0.034204457 0.10685683 0.04690818 0.061244696 0.1233818
-0.03032314 -0.029609498 0.07778047 -0.06350459 -0.09218681 0.081235744 -0.10955605 -0.059100807
0.030019725 0.018002708 -0.07634894 -0.03156699 0.080832295 -0.08162634 0.072327346 -0.013040055
-0.044662304 -0.11923224 -0.032649398 0.10244583 -0.06801821 -0.099242665 -0.010304954 0.088047735
-0.034514375 0.12238227 0.11984335 0.114478186 -0.07131347 -0.08897393 -0.11718474 -0.024101183
-0.08190681 0.058292843 0.012087739 0.09901534 -0.11612111 -0.10480653 -0.023317643 0.032789744

hidden2.bias f4 [32]
00000000: d4d2 9b3c 7b05 fe3d dd73 b9bc 3380 a03d
00000010: a69c 80bd 3ce3 7abd 0765 ee3c f5d8 83bd
00000020: 6e88 5c3d 5ef7 f0bd 4c7f 3bbd 71da fd3d
00000030: b3de d0bb 4f92 883d 36a5 e43d af1c 16bd
00000040: 87e7 f8bc 35ec 8dbc 21a4 81bd 8256 86bb
00000050: 6de0 723d 35e7 da3d 9ea6 ae3d 2478 fd3d
00000060: 6b7a 81bd e28f b2bd e6ed fabd 73aa 943d
00000070: 1c9f 5d3d 2fe6 ebbc 7024 d63d 4a15 b9bd
0.01902143 0.12403389 -0.022638256 0.07836952 -0.06279878 -0.061251864 0.029100908 -0.06437866
0.053841047 -0.117659315 -0.045775697 0.1239518 -0.006374204 0.06668531 0.11164324 -0.03664845
-0.030383838 -0.017324546 -0.06330133 -0.004099668 0.05929606 0.106886305 0.085278735 0.12376431
-0.063221775 -0.0871885 -0.12252407 0.07259073 0.054106817 -0.028796284 0.10456169 -0.09037264

hidden3.weight f4 [16, 32]
00000000: f95f f0bc 22a0 85bb 6e67 8f3d 1ce1 153e
00000010: d2b7 cebd 27df 343e 631b 2b3e 8f56 443d
00000020: 5db6 ecbd 84e9 6d3d 18c5 183d bd5c 82bd
00000030: eefd 2e3e 356c 12be 88d2 80bd 9113 88bd
00000040: 068e 4dbd 5e07 063e d09e 1ebc d822 ca3c
00000050: 34b9 21be 502b f7bd 5802 e23d 5e8b 60bd
00000060: 1f13 813d 849c 0abe adc7 cdbd 24ba ae3d
00000070: 9d37 fd3d 0670 223c e6f8 24be b1cf e5bd
00000080: 97dd 82bd 0682 a83d 2afa 12be 32cb e9bd
00000090: 124d 34be 5663 ffbd 6fd8 033e 3362 88bd
000000a0: 1052 2ebd 3d7d b23b 7858 12bd c5b8 7abd
000000b0: 1c01 8abb adcb b5bd 465b e43d cc54 f5bb
000000c0: c718 a33d 9bca ae3c c007 083e 4d89 ae3d
000000d0: 33ae b6bd 1606 28bd 3841 253d 0185 83bd
000000e0: a5f3 fabd 3116 173e 4a67 f23d 729c b5bd
000000f0: 039d 263d a2ba 033e ed72 dbbd 7b37 f1bc
00000100: 1ba4 15be f645 25be ff81 0f3e e529 7e3d
00000110: c54c ebbd c0f0 56bc a7c6 a7bd dff9 03bd
00000120: 2d8d 1cbd 16ce 663d 5494 fa3c 8dbe f4bd
00000130: 211a b63d 7464 5a3c cf77 bcbd 4097 d1bd
00000140: 63a8 7fbb cc04 7c3d 572d 27be 4c61 28bd
00000150: 7acd 02be 2344 29be 5af2 c23d 8aa1 78bd
00000160: e288 2cbe 6bf5 4ebd 34f5 c7bd 738e c43d
00000170: f263 e3bc 356e dbbd 74b5 94bd 142d 20bd
00000180: 82a0 0b3e 1044 7e3c 5a2f 0ebe da6d 36bd
00000190: 3781 263e 29db 19be 7302 85bd a288 1c3e
000001a0: 8f55 93bd c59a 093e 66f8 edbd b141 083e
000001b0: 6d8b ed3d 24ed 01bd 0b10 27be 9f66 72bd
000001c0: d6de 3a3d 5fef 6fbd 2956 0fbe 8e98 1fbe
000001d0: bbb5 ab3d d9db 033e 1e6b 86bd 7e67 fd3b
000001e0: e59b ddbd d940 d03d 0c36 edbd e14d ccbd
000001f0: 8933 92bd c07f ffbc bee6 bc3c 9702 2abe
00000200: e4a9 86bd c534 9bbd a02e 17bd fd4d 36bc
00000210: b06e 0b3c 2182 b93d 9fc6 d0bd ba2c a03b
00000220: 255e 253e 0194 c03c 1298 05be 9c37 f93d
00000230: c8e2 1fbe 3fa5 903d 46ad 153e d847 b53c
00000240: 5098 bf3d d9ac 0f3e c090 a33d 9b84 57bd
00000250: d1a2 1f3d 4c1a 113e 9092 263d 18b5 10be
00000260: 3362 1d3e dd1d 303e 0188 d03d a2d6 c53d
00000270: 6bab ca3d 45d5 ddbd 1c36 5ebd a862 9b3d
00000280: ec52 343d b632 9b3d 1c28 92bb 1720 2fbe
00000290: 59eb ab3d 9f4d e3bd cfdd 16be ef16 343e
000002a0: aa79 a13d ad50 b33d 856f 9cbd 6362 873d
000002b0: 80f8 803c 7bb2 f43d 7d83 a73c 5941 213e
000002c0: 48b2 2ebd 7a8c 263e 6e4d 323e 0182 ac3c
000002d0: 0e83 04be 188e 9fba 08b4 0f3e 11da f8bd
000002e0: 44f9 81bd 4938 843d e786 103d 609b 2a3e
000002f0: ca24 ef3c 527d 1ebb e594 b53c 88cb 16bd
00000300: 2b79 27be 4ef5 7fbd 6218 24be ef04 043e
00000310: 332c 2b3c 5c8e a53c 3fc2 59bc f35a babd
00000320: 1959 00be 7ba8 ddbc 9b95 5a3d 15d1 c6bd
00000330: 0563 e0bd f7f4 e83d a40f 7fbd 447e ca3d
00000340: 0725 2c3e 060c 293e 34c8 0cbe d46e 553c
00000350: d874 0ebe f869 c93b cf0a c53c fb56 9ebd
00000360: 5051 553d eb08 65bd 2993 cb3d 2e94 d03a
00000370: 53ad f93d ba4d f23d 657b 1d3d d2be 043d
00000380: 1065 a3bd 7881 efbd c78d f43d 32fd ed3d
00000390: 8619 e33c a01c 183e aa41 bd3d 4da0 eb3d
000003a0: 12d6 0cbd c3dd d03c 420b 23be 0c66 25be
000003b0: baf5 aa3d 6dc9 dabd 4c55 093e b428 12be
000003c0: 1bc9 15be 8797 14be 48d0 e83d f377 f0bd
000003d0: 6401 1bbe 7525 993d 0a59 13bd 6ab5 2cbe
000003e0: 044a 003e 6fac 023e 4d6f 113e eaba e23d
000003f0: 231b 0cbe 56e9 9ebd 7ddc 8ebd 130b 30be
-0.029342638 -0.004077927 0.070021495 0.14636654 -0.10093655 0.17663251 0.16709666 0.04793411
-0.115582205 0.058084026 0.03729734 -0.06365345 0.17089054 -0.1429909 -0.06290156 -0.06644357
-0.050184272 0.13088748 -0.009681419 0.024674818 -0.15793306 -0.12068808 0.11035603 -0.05482041
0.06302475 -0.13536268 -0.10047851 0.08531597 0.12364123 0.009914404 -0.16110572 -0.112212546
-0.06389921 0.08227925 -0.14353243 -0.114157096 -0.17607525 -0.12470119 0.12875532 -0.06659355
-0.04255873 0.0054470585 -0.0357289 -0.061211366 -0.004211558 -0.08876739 0.111502215 -0.007486915
0.0796371 0.021336844 0.13284206 0.08522282 -0.089199446 -0.04102143 0.0403454 -0.06421853
-0.12253503 0.14754559 0.11836107 -0.0886773 0.04067708 0.12864164 -0.1071528 -0.0294454
-0.14613383 -0.16139969 0.14014433 0.062051672 -0.11489252 -0.013118923 -0.08192187 -0.032220718
-0.038220573 0.056348883 0.030588306 -0.11950407 0.088917024 0.013329614 -0.09202539 -0.10233927
-0.0039010278 0.061528012 -0.1632589 -0.041108415 -0.12773696 -0.16529898 0.09518881 -0.06070093
-0.16849092 -0.050527018 -0.09763566 0.095974825 -0.027757619 -0.1071438 -0.07261172 -0.03910549
0.13635448 0.015519157 -0.1388525 -0.044538356 0.16260229 -0.15025009 -0.06494608 0.15286496
-0.071940534 0.13437946 -0.11619644 0.1330631 0.11598859 -0.031720296 -0.16314714 -0.0591799
0.04562267 -0.05857789 -0.13997711 -0.15585539 0.08384272 0.12876834 -0.065634 0.0077332845
-0.1082075 0.10168619 -0.11582574 -0.09975792 -0.07138736 -0.031188846 0.023059245 -0.1660255
-0.06575373 -0.07578424 -0.0369097 -0.011126992 0.008510277 0.09058023 -0.10194134 0.0048881443
0.16149195 0.023508074 -0.13046291 0.1216881 -0.15613854 0.07062768 0.1461688 0.022128984
0.09355223 0.1403078 0.07986593 -0.052616697 0.038973633 0.14170188 0.040667117 -0.14131582
0.15369491 0.17198892 0.10182191 0.096600786 0.09895977 -0.108316936 -0.05425082 0.075871766
0.044024393 0.07578032 -0.004460348 -0.17102085 0.083944984 -0.110987894 -0.14733051 0.17586873
0.07884534 0.08755622 -0.07638458 0.06610563 0.015743494 0.11948105 0.02044844 0.15747584
-0.04265049 0.16264525 0.1741235 0.021058084 -0.12940618 -0.0012173085 0.1403352 -0.12150968
-0.06346372 0.06456048 0.035284903 0.16660833 0.029192347 -0.0024183583 0.022165725 -0.036815196
-0.16354816 -0.0624898 -0.16024926 0.12892507 0.01044755 0.020209484 -0.013290941 -0.090993784
-0.12533988 -0.027057877 0.05336533 -0.09707848 -0.109563865 0.11374848 -0.062270775 0.098873645
0.16811 0.16508493 -0.13748246 0.013026912 -0.1391176 0.0061466657 0.024053006 -0.07731434
0.0520795 -0.055916708 0.09940178 0.0015913302 0.12191262 0.118312314 0.038447756 0.032408543
-0.079782605 -0.11694616 0.119411044 0.11620559 0.027722131 0.1485467 0.0924104 0.11505184
-0.03438384 0.02549637 -0.15922263 -0.16152209 0.0834765 -0.1068295 0.13411444 -0.1427334
-0.14627497 -0.14510928 0.113678515 -0.117416285 -0.15137249 0.074778475 -0.035973586 -0.16866079
0.12528235 0.1276109 0.14202614 0.11070807 -0.13682227 -0.07759349 -0.069756486 -0.17191724

hidden3.bias f4 [16]
00000000: 71ff 203d 15ec d0bd ce5d c6bd 9dfc 203e
00000010: 9958 a5b9 0ac9 523d 0c31 a9bd 6c6b 05be
00000020: 93c9 133d c30c c63d 3138 2abe 997d 32be
00000030: 2bc5 75bd 1f5c e73d 9fa1 22be 804d 0f3e
0.039306108 -0.10201279 -0.096858606 0.15721364 -0.00031537263 0.051461257 -0.08261308 -0.1302926
0.036080908 0.09670403 -0.16622998 -0.17430724 -0.060002487 0.112968676 -0.15881966 0.13994408

output.weight f4 [1, 16]
00000000: 1a80 663e df7a 63bd f26c 843c f680 3abc
00000010: 151f 793e 3168 e63c 86ed 753d 58a9 aebd
00000020: a1ba 6ebb c5d3 08be 3598 543c 64a7 0fbd
00000030: 472f 3b3d aca4 413d a79c 50be e3e8 293e
0.22509804 -0.0555371 0.01616523 -0.011383286 0.24328263 0.028125854 0.060040973 -0.085283935
-0.0036427157 -0.13362034 0.012975742 -0.035071746 0.045699384 0.047276184 -0.20372258 0.16592745
